fashion_mnist_model.pth (torch, 835340 bytes, 22 tensors)

0.weight f4 [64, 1, 3, 3]
00000000: 233e 293e 325a 143e edc7 be3e b004 24bf
00000010: c416 fa3c aab2 0d3f 4031 b6be fbdc 9dbe
00000020: 4583 e23e 157a d33e 87c1 90be bcc9 f83e
00000030: af37 d43e c6d8 ddbe 256e 363f 8517 213e
00000040: 275f ecbe 6530 a73e 4935 da3d 8190 4dbe
00000050: a6b8 013f f358 1e3e 5ced c4bd bc82 b13e
00000060: 9d33 d93d 17df c43e eb67 713e 82d8 96bf
00000070: 5fac 0bbf 6c61 093e 7822 a0bf 9ae6 bcbe
00000080: 84f3 9b3e 5d74 95be 9e50 e33e c3c8 d53e
00000090: d8e8 183f 1a5b 133e d3c3 96bd 5d95 133f
000000a0: 76a0 9c3e c492 883e 7943 073f b2df bbbe
000000b0: 19a3 b6bd 7624 033e c592 ce3d db3b 7d3e
000000c0: 0487 653e 9c39 543e 8e8c 013e 4863 a13e
000000d0: f1bd ddbd c1cb 0d3e 92c4 35be f415 5a3d
000000e0: 9ec8 323e 216a 43be 23f2 ecbe f90d 0cbe
000000f0: 6f46 7e3c 1dbe cfbe 672d d036 758a 503d
00000100: 046d e93d 0dc3 af3d affd 8b3e 2188 813e
00000110: 9945 0c3e d798 1bbe b23a 863e 22f5 c5bd
00000120: 1999 5ebe 202a 3bbe 9c32 edbe 0f2c 1bbe
00000130: 6d47 c8be b834 b8be 5694 b4be 3c9f 59bd
00000140: 8d41 ac3d bc23 6bbe 62b1 4a3d 1b7e 03be
00000150: a939 87be 63d4 d1be 7104 4f3e 3524 5c3e
00000160: 97e1 92be fa69 bf3e f7a7 2bbf 13d0 b03e
00000170: 9dc0 343e a5db 3a3f b703 d63d f32f 74bf
00000180: e9ed 383f 3ce2 793e 1f66 3abf 6908 2a3f
00000190: fae4 863e cb71 2abf 8b35 213e 542e 90be
000001a0: f022 60bf 80b8 1d3f 3af4 b43e 878e 65bd
000001b0: a04f b7be 1733 163e 6d0a 71be 646f c13b
000001c0: 0550 85be 56c0 80be e8e3 bebe 8d38 28be
000001d0: 6b01 e5be a2f5 4b3d 90af 8c3e d70a 463e
000001e0: 1e33 8bbe 5642 773c 5afb 193e 684c d5bc
000001f0: f8fd 4f3c 809e 33be 8f49 973e 5bce 46be
00000200: d4c3 393e 2a23 4e3e 66a3 a2bd d390 cb3e
00000210: cc15 203e 2c06 823e 0da8 7b3e a6ba b93e
00000220: 43ca 3e3e 0e90 bdbe 4457 253f 045d 193f
00000230: 3ea1 5f3e 5b6a 3f3d 966b e93c 241e 823e
00000240: 5bc4 603f b4ab 8c3f 267e 2d3f f68e 2dbe
00000250: 48af d23e 5019 063f e6bf 27bf bfed d1bf
00000260: 67f3 89bf 9ac7 a63e 540a 6b3f e90e 83bf
00000270: 814d 933e da0c c23e 581f f4be acc7 57be
00000280: 28a9 d23e 3db5 13bf 8656 c23e 5c35 bcbd
00000290: f457 47bd 38a3 ad3e a5d0 893e 4407 28bf
000002a0: 7252 a53e 8327 f2bd f57d c0be 03a8 0fbf
000002b0: a54c 7cbf 42ef b8be cfb1 c6be f563 61be
000002c0: 405c dc3c 84fe b6be 9f75 f53e df24 143f
000002d0: c865 a03e 1636 5e3f 0355 13bf 5466 8e3d
000002e0: aa75 163f 6011 a3bf e088 6fbd d39c 623f
000002f0: a120 84bf 7a26 6d3d 8838 563c 63dd 4fbf
00000300: e9b7 6e3e 494c 4a3e 96aa 88be 39a2 55bd
00000310: b3ef 943e bbda 003f 1d09 c7bf 8639 bf3e
00000320: 9da4 8b3f 8a80 10c0 9e7b c13f 6112 283f
00000330: bbc1 ccbf 162f 733f a42f 173f 3e1f 0a3f
00000340: 0d7e 20be 8516 babd 939f a33d 1063 5bbf
00000350: 5acb dbbe 4ab7 a03d faac 13bf 60ab 183f
00000360: 4e59 00bd 5eda 3c3e 8b1a fd3c ee7b 593e
00000370: 8fb9 6b3e dd37 173e 1671 9bbe 864a 863e
00000380: f64d 1fbe 511a 253e 3c3d d3be b5aa f9bd
00000390: 78e2 b73c ffc2 e3be b86a f4be a91e 943d
000003a0: a0dd acbd 925b 05bf 18ac 5cbf d769 9ebf
000003b0: ec8a 09bf 52cb 4f3f 28ac 843e 4ad2 50be
000003c0: 6e77 9c3e 1474 5c3f 0e57 d03e 5308 153f
000003d0: caef ea3c c9e9 73bf 329c 913d d7c0 343d
000003e0: 697b 47be cd68 503f 49bf de3d e58c babe
000003f0: 7d21 2cbe d29c 1e3e 3fa2 313e ff39 36bf
0.1652761 0.14487532 0.37261906 -0.6406965 0.030528434 0.55350745 -0.3558445 -0.30832657
0.44240776 0.4130408 -0.2827265 0.4859141 0.41448733 -0.43329448 0.7126182 0.15731628
-0.46166345 0.3265411 0.106546946 -0.20074655 0.50672376 0.15463619 -0.09615585 0.34670055
0.106055476 0.38451454 0.23574798 -1.1784823 -0.5455989 0.1341607 -1.2510519 -0.36894685
0.30459225 -0.2919034 0.44397444 0.41754732 0.5973029 0.14390221 -0.07361569 0.57649785
0.30591172 0.26674473 0.5283733 -0.36694103 -0.08917827 0.12806877 0.10086588 0.24729864
0.22414786 0.20725101 0.12651274 0.31521058 -0.10827244 0.13847257 -0.17750767 0.053243592
0.17459342 -0.19083454 -0.46278486 -0.13677205 0.015519722 -0.40574732 6.2041686e-06 0.050913293
0.11397746 0.08582125 0.27341983 0.2529917 0.13698424 -0.15195023 0.26216656 -0.09665896
-0.2173809 -0.18277788 -0.46327674 -0.15153526 -0.39116994 -0.3597772 -0.3526942 -0.053130373
0.0841094 -0.2296285 0.04948557 -0.12841074 -0.2641118 -0.4098235 0.20216538 0.21498187
-0.28687736 0.3738554 -0.6705317 0.34533748 0.17651601 0.729914 0.10449927 -0.95385665
0.7223802 0.24402708 -0.72812074 0.6641908 0.2634657 -0.66579884 0.15743081 -0.28160346
-0.8755331 0.6160965 0.3534258 -0.056044128 -0.35802937 0.14667927 -0.23539133 0.0059031714
-0.26037613 -0.2514674 -0.37283254 -0.16427822 -0.44727644 0.0497948 0.27477694 0.19340073
-0.27187437 0.015091499 0.1503729 -0.02603741 0.012694828 -0.17540932 0.29548308 -0.19414656
0.18141109 0.20130602 -0.07941322 0.3975893 0.15633315 0.25395334 0.24575825 0.36275214
0.18631844 -0.37023968 0.6458628 0.59907556 0.21838853 0.046732288 0.028493684 0.2541362
0.87799615 1.09899 0.6777061 -0.16949067 0.41149354 0.52382374 -0.6552719 -1.6400679
-1.0777406 0.3257416 0.91812634 -1.0238925 0.28770068 0.3790043 -0.47680163 -0.21072263
0.4114468 -0.5769842 0.37956637 -0.09189865 -0.048667863 0.3391359 0.26916996 -0.65636086
0.32289463 -0.118239425 -0.37596098 -0.5611574 -0.9855445 -0.3612004 -0.38807532 -0.22010787
0.026899457 -0.35741055 0.479413 0.5786876 0.31327653 0.8680128 -0.5755159 0.06953111
0.5877329 -1.2739677 -0.058480144 0.88520545 -1.0322458 0.057898022 0.013075002 -0.81197184
0.23312344 0.19755663 -0.26692647 -0.05215666 0.29089126 0.50333756 -1.5549656 0.37348574
1.0909611 -2.2578454 1.511585 0.65653044 -1.5996622 0.9499372 0.5905707 0.5395392
-0.15673085 -0.090863265 0.07989421 -0.8569803 -0.42928582 0.078474596 -0.57685816 0.596365
-0.031335168 0.18442675 0.030896446 0.21238682 0.23020004 0.14767404 -0.30359715 0.26228732
-0.15557083 0.1612332 -0.41257656 -0.12190763 0.022446856 -0.44484708 -0.4773767 0.072324105
-0.08440709 -0.5209285 -0.86200094 -1.237605 -0.537276 0.8116962 0.25912595 -0.20392719
0.30559868 0.8611462 0.40691417 0.58215827 0.028678793 -0.952786 0.0710987 0.04412922
-0.19480671 0.81409913 0.108763285 -0.3643562 -0.1680965 0.1548951 0.17347048 -0.71182245

0.bias f4 [64]
00000000: 02d9 913e 6b67 07bf 0bba a3be 5496 0e3e
00000010: e26c 2f3d 8ea7 943e d62f b83c 3082 203f
00000020: 11bd 6fbd 6d88 423e 8eb6 d7bd f72d cd3e
00000030: 7005 12be 1bb7 7c3e 1712 9b3e 0945 2b3d
00000040: 0c08 a43e 2e67 013c 39ac 8d3e 7551 083e
00000050: e970 ddbd f2e9 e83e 3381 5abe 0528 ddbd
00000060: 14aa 5fbd 98bb d6be 0b1c f3bb ce42 db3e
00000070: 1c91 a53c 3230 70be eebd 7b3e 1bb1 40be
00000080: 2bc0 f1be 9e3b 9d3e e9bf acbb a7df 69be
00000090: caa7 0c3f c351 40bf ef32 01be 1123 133e
000000a0: a908 a1bd e393 0ebf c67e d5bd 4e6f 37be
000000b0: aa6b 923f 10f2 a9bf 2bfe 083e c963 7bbe
000000c0: 37ff da3c 1964 b5bd 244a 153f 87ef b2bd
000000d0: 0c17 0d3d 4888 b63e 92ef bd3e dd90 6d3e
000000e0: 7536 023e 371d cebd 15bd d93d 6f0a 103e
000000f0: 456e 923e e213 5ebe 5c91 14bf fefd 1c3f
0.28485876 -0.5289218 -0.31977877 0.13924533 0.042828448 0.29034084 0.022483747 0.6269865
-0.058529917 0.18997355 -0.105328664 0.4007413 -0.14259887 0.24679224 0.3028724 0.041813884
0.3203739 0.007898135 0.27670458 0.13312323 -0.108125515 0.45490986 -0.21338348 -0.10798649
-0.05460556 -0.41939998 -0.0074191145 0.42824405 0.020210795 -0.23455885 0.24584171 -0.1881756
-0.47216925 0.30709547 -0.005271901 -0.22839223 0.54943526 -0.7512476 -0.12617086 0.14368846
-0.0786298 -0.5569441 -0.10424571 -0.17913553 1.1439106 -1.3276997 0.13378207 -0.24549784
0.026733024 -0.08856983 0.58316255 -0.087370925 0.034445807 0.3565085 0.3709684 0.23199792
0.12716086 -0.10064166 0.10631768 0.1406648 0.28599754 -0.21687272 -0.580343 0.6132506

1.weight f4 [64]
00000000: 1dad 673f 89e1 a53f 009f 3f3f 47e7 ec3f
00000010: 42ce 693f 2837 433f 4e18 803f 62d7 b83e
00000020: 6bca 8a3f 36ee 5f3f 6b09 c33f c20b 713f
00000030: 9cbe 813f 5e59 203f 0aad 543f acec 4d3f
00000040: c2f0 853f a057 843f ef7e 6b3f e40f a43f
00000050: 43c2 6e3f 47ff 463f bf6e 883f 74f3 b23f
00000060: 5b8e ee3e a9c2 823f b2ea 863f fc88 6a3f
00000070: 9065 e33f bbff 0b3f 32fa f83f 8bf3 083f
00000080: 02ac 7a3f 7495 613f b98c 0040 332b 1c3f
00000090: a5e1 5a3f 55ff b43f 1f15 813f 3686 813f
000000a0: 7c1a 363f 3d94 a43f 28da 713f 248f 813f
000000b0: 37ce 7a3f 44a6 ac3f 1147 273f 8a74 803f
000000c0: 6f53 763f a266 983f 0d82 0e3f eef4 813f
000000d0: 2616 443f 9bfc ca3f 9cd1 be3f 3b07 4d3f
000000e0: e8b5 9a3f 6fa5 8d3f 3c08 923f dfb7 953f
000000f0: 0e2d f93f 569d 7e3f 2d48 873f 4177 213f
0.90498525 1.2959453 0.7485199 1.850808 0.9133035 0.76256037 1.0007417 0.36101824
1.0843023 0.87472856 1.5237249 0.94158566 1.0136294 0.62636364 0.83076537 0.8043926
1.0464098 1.0339241 0.9199056 1.281735 0.9326517 0.7773327 1.0658797 1.3980546
0.46592984 1.0215656 1.0540373 0.9161527 1.776537 0.5468709 1.9451354 0.5349662
0.97918713 0.8811867 2.008589 0.61003417 0.85500556 1.4140421 1.0084571 1.0119083
0.7113416 1.2857739 0.94473505 1.0121808 0.9797091 1.348824 0.65342814 1.0035565
0.9622106 1.1906321 0.5566719 1.0152872 0.76596296 1.5858339 1.4907718 0.8008916
1.2086763 1.1066111 1.1408763 1.1696738 1.9466875 0.99458826 1.0568901 0.6307259

1.bias f4 [64]
00000000: f52a d5be 10d7 3bbe 0d70 44bf fce4 33be
00000010: 06f5 26bf a809 b2be 27ea 0a3c ad3c 10be
00000020: e1d8 343d c7e8 bdbe acbe a03e a862 9abe
00000030: 5b3f 8d3c 2b80 afbe 91d6 b5be 856c 29bf
00000040: 53b6 42bf bd63 163f 9be3 b0be 1583 55be
00000050: 91f6 333f 887c 89be 4bd5 503a 20c9 02be
00000060: 0446 22be f032 293e c452 da3e 1140 c0be
00000070: 274b 7bbd 1d9e bebd 7129 43be b92a 72be
00000080: 415c 18bf df10 03bf addd 86bd 132d 60be
00000090: 1e9b f6be 70a0 9abe 064b 51be 1de5 63bf
000000a0: c04a c3be 39a7 573e a88b c1be dd62 bb3b
000000b0: 1a1c a2be 416b 43bf 1e53 d6be 3c76 e53a
000000c0: ad38 c5be cfa5 f5ba 03b3 bdbe 537a 37bb
000000d0: 8bf1 79be 6a00 a4be 7efe 1ebe dd00 a4be
000000e0: 082a eebd f76f 453d 8047 4cbe c735 933b
000000f0: f7aa fbbe d470 9abe b58c 26be 1fe7 8dbe
-0.41634336 -0.18343759 -0.76733476 -0.1756782 -0.65217626 -0.34772992 0.008478678 -0.14085646
0.044152144 -0.37091658 0.3139547 -0.30153394 0.017242124 -0.34277472 -0.35515264 -0.6618121
-0.76059455 0.5874594 -0.3454865 -0.20850785 0.70298105 -0.26852822 0.00079663534 -0.12772036
-0.15847021 0.16523337 0.4264127 -0.3754888 -0.061350968 -0.093075015 -0.19058777 -0.2364911
-0.5951577 -0.5119762 -0.0658525 -0.21892194 -0.4816522 -0.3020053 -0.20438775 -0.89021474
-0.38142967 0.21059884 -0.37801862 0.0057185725 -0.31662065 -0.7633553 -0.41860288 0.001750655
-0.38519803 -0.0018741431 -0.37050638 -0.0027996495 -0.24408548 -0.32031566 -0.15526769 -0.3203191
-0.116291106 0.04820248 -0.1994915 0.0044924947 -0.49153873 -0.30164206 -0.16264613 -0.27715394

3.weight f4 [64, 64, 4, 4]
00000000: d46f 89bd 60cb 1ebd dc2f 9abd ba84 e8bd
00000010: 120f 803c 7bc0 953d c7d5 32bd 0b17 97bd
00000020: b52a 9d3c 6da9 0f3d e381 fa3a 1558 3dbd
00000030: bee4 00bd 04b0 6dbd 503f 07bd 0c0f c6bd
00000040: 63a3 4a3b df2b e0bc 69fb 23bd 378c 87bd
00000050: 22e1 b13c 582d 873c e16c c8bc b735 8dbd
00000060: f892 e0bb 1349 ebbb d98e b7bc a93d acbc
00000070: c613 e6bc 3fc0 0e3b 7565 24bd 0b11 a8bc
00000080: db03 ac3b 7c88 19bc 8a7f 9abc 939f 87bd
00000090: a249 813c 6e20 643c a4a8 eb3b b8b6 19bd
000000a0: 1c26 723c a4f2 333d 60f4 77bc 78a3 7c3c
000000b0: 07d4 05bc 95d2 2ebb e81e 05bd 6767 12bd
000000c0: 26a6 15bd f922 22bd 8ee5 bb3c 4ab7 7a3d
000000d0: 499b 94bd 07ac 83bc a1a8 3ebb 2419 0a3d
000000e0: 5ccb 36bd 8796 603b c6a3 683c de15 1a3d
000000f0: 0b8e e3bc 681b d6ba e0db 1a3d a7b3 5e3d
00000100: ed07 a9bd d652 47bd eee5 84bd 0148 88bd
00000110: 6a45 9c3c 8b48 2dbc 985f b63c 571d a73c
00000120: 2ff0 e3bc b1fd e23c 1080 43bc b908 ae3c
00000130: 6a9c 14bc 9d13 babb 9750 b6bc babd b6bc
00000140: 7794 d0bc 4b49 6dbc fefe 6bbd be24 c0bd
00000150: 53a2 1f3d 6176 5d3d 020a db3c 81fd 7cbd
00000160: c0fb 963c c46c 273d 4787 8f3c cfb2 d9bc
00000170: 74e3 8d3d 8fd0 793c 062f a4bc 727d d1bc
00000180: db85 9a3c 7bef aebc c09f 4c3c d04c 89bc
00000190: 6d97 c8bc 269a ad3c c572 e4bc 75a1 d63c
000001a0: 6872 e6bc 0acc 963c b18c 02bc 342c 63bb
000001b0: 4a0c e63c ab59 02bc 559a f0bc 37d9 483c
000001c0: 4c8b 86bd 0521 68bd 08f5 d6bc 9f69 96bd
000001d0: 0778 d73c fa44 9c3b 41d1 19bc b745 3dbc
000001e0: ca5a f63c 8da1 243d 5a9a 973b f33f 49bc
000001f0: 1722 0ebc 9096 1e3b c0e4 debc ce32 9cbd
00000200: 808c d73c 74e0 fe3c 94c5 dd3c b113 1fbb
00000210: e636 83bc 2225 1abb 2eca 03bc fd19 1fbd
00000220: c919 7ebc 459c a939 601b 18bb c773 61bc
00000230: d325 b13c 057c 11bd 6057 b0bc 60c7 f4bb
00000240: 95b9 89bc 0400 033d 42bf 5bbc 0507 27bc
00000250: dd85 d83c f7bc 223d b7ef a73c cccc 2b3d
00000260: 5932 393c 7c6e 043d 09c9 6dbb 8b56 de3c
00000270: 0483 dc3c 001b 273d 4c6f 8cbc 5222 923b
00000280: 8c88 69bd 7b76 2ebd 4f3a 9bbd 677a f3bc
00000290: 6a4b 7dbd 1005 67bd 2133 c8bd 9cff a0bd
000002a0: 1ece a4bc da64 cbbc e728 70bd 4973 27bd
000002b0: b189 7a3c c35e 07bd 21a9 e2bc 1eec 38bd
000002c0: 9370 86bd c447 40bd f87e 623d 34f7 ab3c
000002d0: a30e 2b3d 4409 47bc 89aa d43c 5a48 bcbb
000002e0: 95dc 6c3c 94ee 993c c138 c43d f595 07bc
000002f0: ff33 4dbc f46c 8d3c c643 8a3c 9279 76bc
00000300: a38f 0ebc 1d72 01bd 0c6d febb 3d1f a8bc
00000310: 716b 18bd ede5 973c 9515 1cbd ca26 7fbb
00000320: 1aa3 15bd 88d4 b0bc 30a8 343a 2bf4 10bd
00000330: 6ef1 1f3c f622 4bbc 2dc5 d9bc c050 0bbd
00000340: f09d b23b 3e65 0dbd 716d 94bc 32d5 93bd
00000350: 9397 8e3c e828 6e3d 5a29 e8ba ee50 4cbd
00000360: a779 233a 8406 4b3d 2fd1 3a3d 4764 e6bc
00000370: abe6 983c 0604 eabc 0755 88bc 05ba 55bd
00000380: 79af 7c3c b1a7 01bb b839 f2bb c7ba 53bd
00000390: 62df 5e3d 11ca 5d3d a170 3abc fa54 b7bc
000003a0: f285 2b3d fc0a f23c 1fd3 083c 7086 16bd
000003b0: 2fa7 0f3d 7195 5c3c e9ec 6fbd a395 96bd
000003c0: 8e78 43bd c42a 64bd ceb0 5ebd 0625 0fbd
000003d0: 16f5 f73c 326d aa3c 0f66 3c3d ddd7 103c
000003e0: 7b44 003d db57 d83a de58 fe3c fc90 563a
000003f0: eef8 543b e559 f739 f4e4 59bd 20db 46bd
-0.06710783 -0.038768172 -0.0752866 -0.113534406 0.015632186 0.07312103 -0.043660905 -0.07377442
0.019185403 0.035073686 0.0019112196 -0.04622658 -0.031468146 -0.05802919 -0.033019364 -0.09670839
0.003092014 -0.02736467 -0.040034685 -0.06618541 0.021713797 0.016501114 -0.02446598 -0.06895011
-0.0068534575 -0.007180342 -0.022406982 -0.021025496 -0.0280856 0.0021782068 -0.04013582 -0.02051594
0.005249483 -0.009370919 -0.018859643 -0.06622233 0.015782181 0.013923747 0.0071917344 -0.03752777
0.014779594 0.043932572 -0.015133947 0.015419833 -0.008168227 -0.002667581 -0.032500178 -0.035743143
-0.036535405 -0.039584134 0.022936609 0.061209954 -0.07256181 -0.01607324 -0.002909221 0.033715382
-0.044627532 0.0034269409 0.014199203 0.03761851 -0.027777692 -0.0016335072 0.037807345 0.05437055
-0.08253465 -0.048662983 -0.06489168 -0.06654359 0.019076068 -0.010576378 0.02226238 0.020399733
-0.02782449 0.02770886 -0.011932388 0.021244394 -0.009070495 -0.0056786076 -0.022255225 -0.022307266
-0.025461419 -0.014482806 -0.057616226 -0.09382008 0.038973164 0.054067973 0.02673817 -0.061765198
0.01843059 0.04087521 0.01752056 -0.02657452 0.06928149 0.015247478 -0.020041954 -0.025572512
0.018862655 -0.021354428 0.012489259 -0.01676026 -0.024486268 0.021191668 -0.027886758 0.026200036
-0.028130725 0.01840784 -0.007968114 -0.0034663798 0.028082032 -0.007955949 -0.029370466 0.012258819
-0.065695375 -0.056672115 -0.026239887 -0.073443644 0.02630235 0.004768965 -0.009388269 -0.011552266
0.030072588 0.04019313 0.0046265544 -0.012283313 -0.00867512 0.002419863 -0.027208686 -0.07626878
0.026312113 0.031112887 0.027071752 -0.0024273212 -0.016017389 -0.0023520668 -0.008043809 -0.038843144
-0.015509077 0.00032350622 -0.0023209676 -0.013760514 0.021624481 -0.035518665 -0.021526039 -0.0074700564
-0.016812125 0.031982437 -0.013412299 -0.010194545 0.026431018 0.039730992 0.020500047 0.041943356
0.011303508 0.03233193 -0.0036283156 0.027140876 0.026917942 0.040797234 -0.017142914 0.0044596577
-0.057014987 -0.04259346 -0.07579481 -0.029721452 -0.0618395 -0.056401312 -0.09775377 -0.078612536
-0.020117816 -0.024828363 -0.058632758 -0.04088143 0.015291617 -0.033049356 -0.027668538 -0.045147054
-0.065644406 -0.04694344 0.055296868 0.0209919 0.041762006 -0.012148205 0.025960224 -0.0057459297
0.014456888 0.01879052 0.095811374 -0.008275499 -0.012524604 0.017263867 0.01687802 -0.015043633
-0.008701238 -0.031602968 -0.0077644642 -0.020522708 -0.03721184 0.018542254 -0.03810652 -0.0038933032
-0.0365325 -0.021585718 0.0006891517 -0.035389107 0.009762151 -0.012398472 -0.026583279 -0.034012556
0.0054509565 -0.03452038 -0.018118592 -0.07218398 0.01740626 0.05814448 -0.0017712519 -0.049881868
0.0006236084 0.04956676 0.04560965 -0.028123988 0.018664679 -0.028566372 -0.016642107 -0.052179355
0.015422695 -0.001978379 -0.0073921345 -0.051691797 0.054412253 0.054147784 -0.011379392 -0.022379387
0.041875787 0.029546253 0.008351116 -0.036749303 0.035071548 0.013463364 -0.058575545 -0.0735276
-0.04772239 -0.055704847 -0.054367833 -0.034947418 0.030268233 0.020804022 0.04599577 0.008840528
0.031315308 0.0016505675 0.031048235 0.00081850565 0.0032497006 0.00047178488 -0.053196862 -0.048548818

3.bias f4 [64]
00000000: 4196 c5bb 18c7 27bc f786 4b3d 6f25 d7bc
00000010: fe15 8cbd 644c 003d 4d13 aebd 6869 8b3d
00000020: d85b 0f3e b6c7 f3bd f54e 1a3d ed87 11bd
00000030: 8b08 313c 9633 18bd 72bb 3bbc 234e 20bc
00000040: 8998 49bc 5a97 643c ac2a 28be 28b3 0b3e
00000050: feff b4bd a66d 3d3d cf9b 1d3b 9492 21bc
00000060: 386b 3d3e cf8c 46be d5e5 ddbd 36ee 9f3d
00000070: 3813 053e 7fb9 e8bd d1f5 7e3d 723c 81bd
00000080: 67bf 9abd 0a9c 983d a6f1 b1bc 469d da3c
00000090: c6a4 78bd 3feb 7d3d 5344 dd3d 5fd8 9dbd
000000a0: d2ef e3bc 2068 e13c b340 8c3d 1bf0 a8bd
000000b0: 1dce 39bd 052b c43c 3be2 1c3d 53ce a9b9
000000c0: 662f b2bd 2817 fb3d 3ebf 213d 55c0 93bd
000000d0: 84fd a73d 8195 a8bd 5731 183d aad8 06bd
000000e0: 5817 2fbd 84d1 7d3d 0609 e1bc a332 0c3d
000000f0: b8c7 f3bb 01a4 243c a814 c1bd e05d 9e3d
-0.0060298746 -0.010240339 0.04968926 -0.026262967 -0.06840132 0.03132285 -0.08499775 0.06807214
0.1399988 -0.11903326 0.037672956 -0.03553002 0.010805259 -0.03715857 -0.011458265 -0.009784254
-0.012304434 0.013952101 -0.16422528 0.13642561 -0.08837889 0.046247147 0.0024049168 -0.009861607
0.18497932 -0.19389652 -0.108348526 0.07809107 0.12995613 -0.113635056 0.062246148 -0.06310357
-0.07556038 0.07451637 -0.021721672 0.026686322 -0.060704015 0.061991926 0.108040474 -0.07707285
-0.027824316 0.027515471 0.06848278 -0.082489215 -0.04536258 0.023946295 0.038301688 -0.00032387915
-0.08700447 0.12260276 0.039489023 -0.07214419 0.08202651 -0.082316406 0.03715643 -0.03292147
-0.04274687 0.061967388 -0.027470123 0.03422798 -0.00743958 0.010048867 -0.09427768 0.07732749

4.weight f4 [64]
00000000: 319e 203f a365 6c3f 95e0 443f b380 353f
00000010: 001f d83f 9e4d 7e3f cc75 703f 75b2 473f
00000020: 158d 833f 5a7f 703f 2a1d d63e 5cf2 803f
00000030: ab5a 9d3f beef 953f 9d2a d73e 3dbf 7f3f
00000040: 5b61 263f 66e0 b13f f3e9 433f 9e62 293f
00000050: 3891 783f 44fc de3e a860 133f f7a7 8b3f
00000060: b932 8e3f f17d d53f 7b00 573f e52a 513f
00000070: aa8e 503f a47b d13f 9762 af3f 5ad3 933f
00000080: e8f9 513f 3ed1 983f 0a25 953f 5a27 9c3f
00000090: 0efb 6f3f 36c3 953f 3d92 0c3f b85c 743f
000000a0: 60e2 9d3f ff7a 423f 6ead 883f ff16 543f
000000b0: 387b 3d3f 51f3 763f d066 2f3f 2173 5c3f
000000c0: aa00 673f 52f6 133f 470b 563f a648 8f3f
000000d0: 7f93 643f 83d1 c13f 43ab f83e bf9d 733f
000000e0: a68c 583f deb6 1c3f de64 4f3f 8067 1e3f
000000f0: a236 4a3f 3eca 103f d85b 553f ce3a 953f
0.6274138 0.92342585 0.76905185 0.70899504 1.688446 0.99337184 0.93929744 0.7800668
1.027743 0.93944323 0.41819125 1.0073962 1.2293295 1.1713789 0.420247 0.9990118
0.649923 1.3896606 0.76528853 0.661661 0.97096586 0.43551838 0.5756936 1.0910634
1.1109229 1.6679059 0.8398511 0.81706077 0.8146769 1.6365857 1.3701962 1.1548874
0.8202195 1.1938856 1.1651928 1.2199509 0.93742454 1.1700199 0.5491064 0.9545398
1.2334709 0.7596893 1.0677927 0.8284759 0.7401614 0.9646502 0.68516254 0.8611317
0.9023539 0.5779773 0.8361096 1.1194046 0.8928756 1.5142063 0.48568162 0.95162576
0.8458961 0.61216533 0.81013286 0.6187668 0.78989613 0.565586 0.8334327 1.1658571

4.bias f4 [64]
00000000: 8cd1 27bf a138 80bd 6f28 15bf 7a04 30bf
00000010: 702f 63be 1f9b 4bbf 61b9 3abf cd0f 18bf
00000020: 700e 46bf 1704 97be 8cdb f2be 01a8 8e3c
00000030: 7f20 5ebf 8a47 3cbf 8e2f 1abf 2ea8 03bb
00000040: e303 24bf 088a 073e 7cd6 e0be 37da 43bf
00000050: 65db 29be 38a4 12bf 8b97 19bf 4fea 063e
00000060: 3bbf 46bf bf0d 8abe 97a4 c1be 1f9f 41bf
00000070: 5b8c 12bf 3924 e7be cefa c0be 0627 60bf
00000080: b690 b6be eb6e aabe 36e6 edbe 2e8d 3bbf
00000090: 4713 77bf 19ca 58be 2c2a 00bf 6d74 aebe
000000a0: 482d b4be b3ca 75bf 0d2a 5cbf 0525 4ebe
000000b0: f374 e3bc 2fff 42bf 7aa7 50bf 8b64 25be
000000c0: afd1 bcbe 5bfa 33bf a425 00bf 6206 91be
000000d0: ec68 68bf 8398 093d d396 dbbe 9309 84bd
000000e0: d43e debe 6946 0cbf 9344 88be a97d 1cbf
000000f0: 9bd9 a1be 7eec 03bf d672 16bf e777 f8be
-0.6555412 -0.06260801 -0.5826482 -0.6875683 -0.22186065 -0.7953357 -0.72939116 -0.5939911
-0.7736578 -0.29495308 -0.47433126 0.017414095 -0.86768335 -0.7354666 -0.6022881 -0.0020089257
-0.6406843 0.13236248 -0.4391364 -0.76504844 -0.16587599 -0.5728183 -0.5999686 0.13175319
-0.77635545 -0.26963612 -0.37820885 -0.75633425 -0.57245415 -0.45144823 -0.3769135 -0.87559545
-0.3565728 -0.3328775 -0.464647 -0.732623 -0.9651379 -0.21170844 -0.5006435 -0.340732
-0.35190797 -0.9601242 -0.86001664 -0.2013131 -0.027765727 -0.7617063 -0.8150555 -0.16151635
-0.36878726 -0.7030389 -0.50057435 -0.28325182 -0.907851 0.033592712 -0.42888507 -0.06447139
-0.4340731 -0.5479494 -0.26614818 -0.6112924 -0.31611332 -0.51532733 -0.58768976 -0.48528978

6.weight f4 [64, 64, 4, 4]
00000000: 8b62 343d 3fe3 723d f516 6cbc 68fc d43a
00000010: 40a9 ecbb ad2f a63b dd1d 5fbd 7552 2c3b
00000020: 08e7 4c3d e113 3039 2016 98bd 81ea c03c
00000030: 1b9e 613d 8fc0 e0bb 0ec1 e1bd a510 073d
00000040: 1034 c5ba 91f0 863a 6c2b 9cbc 3125 cebc
00000050: cbfe bcb9 b846 2c3c ed98 3a3d 1077 c9bc
00000060: 2a93 a5bc 7899 88bc 6e7d 0e3c aa86 a5bb
00000070: f87b b9bc 1b60 fcbc efd0 20bd 729e ebbc
00000080: c2a1 aa3d ea12 a43b 9662 adbd ab84 0ebb
00000090: 65c0 37bc 642c e0bd 70bf 62be 5580 73bd
000000a0: a809 aebd 9a7c 1ebd 018b 53be d719 11bc
000000b0: 6e3d f43d 203c a03d 5e60 b4bd f94d 8bbd
000000c0: 57cc 813d 5564 923d e71c d43c e6dd 103d
000000d0: 3c88 bb3b 9456 8bbc 13f8 b5bc 01d7 b1bc
000000e0: af20 45bd df15 a7bd 05b1 84bd 9ec4 33bc
000000f0: f3d5 e7bd 3262 18be c7ea b3bd aa30 59bd
00000100: 6960 3fbd 1a16 03be d0a9 aa3c c5ab f43b
00000110: 30d8 e0bc f007 55bc 5d7d 913d 67fb 2abc
00000120: a18c 9bbd 60f1 fcbd 42d6 2fbc 9e87 74bb
00000130: db07 0bbe a50b 8dbe 4653 67be 7cf5 29be
00000140: 0e38 5fbd fef6 f03d 011c de3d 1558 153d
00000150: febc 57bd ab6c b63c c8a3 4f3d cde4 1cbc
00000160: eb14 acbd f68d cb3c 3c27 773d 19fb 3fbd
00000170: 037a 50bd e4fa 08bb 50c6 8f3d 64ba a4bd
00000180: d3d8 68bd 75c4 34bd 7937 85bd ff7f 9a3b
00000190: a279 b1bc 8f6e e5bc 0419 34bd 0389 b33b
000001a0: 745b 9dbb 9ed1 893a e398 e1bc d0de 013d
000001b0: fd15 983c 5200 6fbd d554 ba3c 92e4 e83c
000001c0: 7641 f2bc f0c5 8abd 9364 0bbd cdbd 9abd
000001d0: a23f 053c 24a6 91bd 371d 23bd 2911 9dbd
000001e0: 5cb2 adbb ba7e 91bd 7750 47bd 9feb d4bc
000001f0: c451 b83b ee50 a5bd 74fc ddbd e816 66bd
00000200: 74df e1bd c960 4e3c 571a f63d 3d75 103d
00000210: e60e e9bd 4d4d 1dbd 51af 043e b039 d73c
00000220: 589c c6bd b734 ec3b 328d 0e3e b4c9 953d
00000230: c1f8 c9bd 6dc9 4fbc 8e93 c23d 7cd4 d83c
00000240: 69bf 1dbd bcfd 54bd 9acc 36bc 8d36 9cbc
00000250: ba56 763d 7734 e83c 59c0 343d 1649 383d
00000260: 57ac 2abd 5def 133c bb35 9cbb c680 043c
00000270: d563 1abd f36e cdbd ca2d 67ba 679b 23bd
00000280: 5320 113d 048d a93c b576 0cbb 5117 533d
00000290: 8c0c 2a3c 2cb3 bdbb c69d 663c c8f2 513d
000002a0: 7a83 663c 1f87 873c acaf c5bc 963d 553b
000002b0: be6e d2bc 66bc 09bd 05a2 f8bc de28 103d
000002c0: 4ec9 55bc f7e9 023c 845a df3c ad6f 633c
000002d0: 6abc 153d 8daa a63a 392c ad3c dc63 a3bc
000002e0: 1267 f13b c4e7 7abc f68f 7bbc 206a f8bc
000002f0: 25a7 35ba e514 973b c71e 95bc 054a 64bc
00000300: f378 2abd b7f9 45bd 8045 7dbc ab9b 84bd
00000310: 82d9 cbbd 8187 d7bd ce23 a4bd a718 30bd
00000320: ee62 09be 1785 e1bd 945c afbd c7da 97bd
00000330: 3a59 0bbe 5d64 02be 9d70 c7bd ae60 c5bc
00000340: c83f b0bd 0004 0bbd 5018 f0bc 98ce 00bd
00000350: 5d32 b6bd 500d 01bd 5059 23bd ef91 cf3c
00000360: 9a8c 98bc 2206 ebbc d2c8 aebc 537c ffbc
00000370: 022f 223d 84e7 6a3c 117b dcbc edd0 8bbc
00000380: d58f 463d 5884 583d 4c30 473c a3a2 e1bb
00000390: ed90 eabb 76c9 30bc f9ae dc3c e469 623c
000003a0: 4c0d 71bc cf89 2b3c 3c7a 063b b710 73bc
000003b0: 64ee 73bd dc07 a2bd 0ff7 80bd f280 12bd
000003c0: e611 5b3c dc63 0cbc a8a6 5c3c c089 153b
000003d0: cdde 963c a10e d7bc bd51 4abb bf89 b9bb
000003e0: fb41 b83c a6e9 7bbc 7dc6 77bc c1f3 06bc
000003f0: 92b3 a73c aafc 8cbc 73b2 64bc c7cb d43c
0.04403929 0.05929875 -0.01440977 0.0016249539 -0.0072223246 0.0050716014 -0.05447184 0.0026294265
0.050025016 0.00016792073 -0.07426095 0.02354932 0.05508242 -0.0068588923 -0.110231504 0.032974858
-0.0015045423 0.0010295083 -0.019063674 -0.025164219 -0.0003604799 0.010514908 0.045555998 -0.024592906
-0.020211775 -0.016674742 0.008696897 -0.0050514536 -0.02264212 -0.030807545 -0.039261755 -0.028762076
0.08331634 0.0050071375 -0.084660694 -0.0021746557 -0.011215304 -0.10945967 -0.2214334 -0.05944856
-0.084979355 -0.038693048 -0.20658495 -0.008856258 0.11925779 0.07823968 -0.08807443 -0.068019815
0.06337803 0.07148043 0.025892688 0.03536787 0.0057230275 -0.017009057 -0.022213018 -0.021708967
-0.048126873 -0.081584685 -0.06479076 -0.01097217 -0.113201044 -0.14881209 -0.087850146 -0.053024925
-0.046722803 -0.128014 0.020832926 0.0074667656 -0.027446836 -0.013002381 0.07103989 -0.010435916
-0.07595182 -0.12350726 -0.010732235 -0.003731228 -0.13577215 -0.27547947 -0.2259036 -0.16597551
-0.054496817 0.1176586 0.10845185 0.036460955 -0.05267047 0.022268614 0.050693303 -0.009576035
-0.08402427 0.024847966 0.06034015 -0.046870325 -0.05089761 -0.0020901496 0.07020247 -0.08043364
-0.056847405 -0.04413267 -0.06504721 0.0047149654 -0.021664444 -0.02800682 -0.04396917 0.0054789796
-0.004802162 0.0010514741 -0.027538722 0.03170663 0.018565172 -0.058349915 0.02274553 0.028429303
-0.02957223 -0.06776035 -0.034031462 -0.07555733 0.008132847 -0.07111767 -0.039822783 -0.07669289
-0.005300803 -0.07104249 -0.04866072 -0.02599126 0.0056249816 -0.08072077 -0.10839167 -0.05617419
-0.110289484 0.012596318 0.12016743 0.035268057 -0.11379795 -0.038403798 0.12957503 0.026272625
-0.09697789 0.0072084325 0.13921049 0.073138624 -0.09861899 -0.012682301 0.095008 0.026468508
-0.03851262 -0.051999792 -0.011157179 -0.01906898 0.060141303 0.02834533 0.04412875 0.044991575
-0.041668262 0.009029237 -0.0047671474 0.008087343 -0.037692863 -0.100309275 -0.0008818774 -0.039943125
0.035431217 0.020697124 -0.002143306 0.051535908 0.010378968 -0.005789181 0.014075702 0.051256925
0.014069432 0.016543923 -0.024131618 0.0032537929 -0.025687572 -0.033626936 -0.030350694 0.035195224
-0.013048483 0.007990352 0.02726484 0.013881606 0.03655664 0.0012715623 0.021139251 -0.019945078
0.0073670233 -0.015314046 -0.015354147 -0.030324042 -0.00069295085 0.004610645 -0.018203152 -0.013933663
-0.041619252 -0.04833385 -0.015458465 -0.06475004 -0.09953596 -0.10523892 -0.08014642 -0.04299226
-0.13416645 -0.11011713 -0.0856258 -0.07414775 -0.13608256 -0.12733598 -0.09738276 -0.024093952
-0.08605915 -0.03393936 -0.029308468 -0.031447023 -0.08896325 -0.031506836 -0.039880097 0.025338141
-0.018621732 -0.028689448 -0.021335993 -0.031187212 0.03959561 0.014337424 -0.026914151 -0.017067397
0.048477013 0.052860588 0.012157511 -0.006885843 -0.00715839 -0.0107902195 0.026938902 0.013819192
-0.014712643 0.010469868 0.0020519635 -0.014835528 -0.05955352 -0.07911655 -0.06297123 -0.035767503
0.013370967 -0.00856873 0.013467468 0.00228177 0.018416787 -0.026252093 -0.0030871474 -0.0056621726
0.0224924 -0.01537553 -0.015123007 -0.008236826 0.020471368 -0.017210323 -0.013958561 0.025976075

6.bias f4 [64]
00000000: 585e 1ebe ed59 2b3e 66a6 f2bd 89c1 173e
00000010: b2dc 42be f632 1c3e c0af 14bb b8f9 41bd
00000020: 2c04 2abd 276b a03c 1cf5 a63d eb37 bebd
00000030: 4f53 04be ebf5 2a3e b176 d7bc 1b85 043c
00000040: 11da 11bc a877 4a3b 4d67 7a3d 3f65 8bbd
00000050: a387 4bbd 0042 e53c 8cfb 6a3d f4d4 9cbd
00000060: eff5 033e eb1f 01be 1ddb 1b3d 7e8b 69bd
00000070: 5d90 6d3c b05a 3c3c 0a0e 05be 23b5 d53d
00000080: 79d9 c23d e1a9 91bd d65f 8e3d db17 04bd
00000090: b739 0bbc 29aa f13c c374 4cbd bf5d f23c
000000a0: b563 223e a25c 2bbe 18e4 1ebe 012e 243e
000000b0: 4846 933d c226 d1bd 653c adbd 89bd 8a3d
000000c0: 4a3e b2bd fe19 c53d f1a3 cebd 81e9 0b3e
000000d0: 3fd5 46be fe67 4c3e 1278 40bc 75ad 283d
000000e0: 3cbe 183e 5f14 0cbe c139 9e3c 834b e33c
000000f0: 387a 1bbd 8101 d73c 1452 20bd 7cd4 503d
-0.15465677 0.16733523 -0.11848144 0.14819922 -0.19029501 0.15253815 -0.0022687763 -0.04735729
-0.041507885 0.019582344 0.0815222 -0.09288009 -0.12922405 0.16695373 -0.026301714 0.008088375
-0.008902089 0.0030894075 0.06113367 -0.068064205 -0.0496899 0.027985573 0.0573688 -0.07657805
0.12886785 -0.12609832 0.03805076 -0.057017796 0.014499751 0.011496231 -0.12993637 0.1043494
0.09514136 -0.0711248 0.06951873 -0.032249313 -0.008497647 0.029500084 -0.04991604 0.029585717
0.15858348 -0.16734555 -0.15516698 0.16033174 0.071911395 -0.102124706 -0.08458785 0.06774432
-0.08703287 0.09624098 -0.10089863 0.13663293 -0.19417284 0.19961545 -0.011747377 0.041181047
0.14916319 -0.13679646 0.019314649 0.027745968 -0.037958354 0.026245834 -0.039140776 0.05098389

7.odefunc.norm1.weight f4 [64]
00000000: bdcb 6a3f 91bd 8f3f 8e4e 323f 3e64 a63f
00000010: 2407 963f 290e 933f 249f 8b3f b25b 9e3f
00000020: 80a9 703f c485 883f 2da2 883f 3de1 823f
00000030: 9363 753f 517e 6d3f 35db 473f e9ba 6b3f
00000040: f5b1 5a3f 6bfd 6d3f fcd1 9b3f 3de8 923f
00000050: 1d2b 303f 1781 803f d2f9 873f a315 913f
00000060: b2e7 643f 7426 9b3f 64cb ab3f ff70 ba3f
00000070: 0843 703f 8a36 933f c349 a83f 1c54 6a3f
00000080: 6dab 933f 5a46 8a3f 6030 ab3f 28d5 973f
00000090: d32e 6f3f d32d 7c3f 5e2f 933f 8416 b83f
000000a0: 3db8 963f 4161 8b3f 9713 b83f 5045 653f
000000b0: b429 ad3f d3aa 9e3f 4531 8f3f d327 033f
000000c0: 168e 9f3f 78b3 353f 8be5 913f 8810 823f
000000d0: 97c1 9b3f 97d4 953f f6ab 973f 03d4 823f
000000e0: c630 873f bc10 a33f 0fa0 2c3f 3874 763f
000000f0: 14f8 983f 4366 943f e477 613f 1bc7 943f
0.9171713 1.1229726 0.69651115 1.2999341 1.1720929 1.1488696 1.0907941 1.2371733
0.94008636 1.0665822 1.0674492 1.0224987 0.95855063 0.9277087 0.7806886 0.9208208
0.8542779 0.9296481 1.2173457 1.1477123 0.68815786 1.0039395 1.0623114 1.1334728
0.8941604 1.212111 1.3421445 1.4565734 0.9385228 1.1501019 1.314751 0.9153459
1.153669 1.080272 1.3374138 1.1861925 0.93430823 0.9850742 1.149883 1.4381871
1.1774975 1.0889055 1.4380978 0.8955889 1.3528352 1.2395881 1.1186911 0.5123264
1.2465236 0.7097697 1.1398176 1.0161295 1.2168454 1.1705502 1.1849353 1.0220951
1.056176 1.2739482 0.6743173 0.96271086 1.1950707 1.1593708 0.88073564 1.1623262

7.odefunc.norm1.bias f4 [64]
00000000: 6161 b2be 88df 63bf 14ef e8be 1915 5ebf
00000010: 5b27 a8be c0d4 6dbf bd9c 06bf cfad 4dbf
00000020: e4bb 29bf a568 abbe d948 5dbf 0b30 3dbf
00000030: e36c 29bf 8f7a ecbe a024 22bf 3835 94bd
00000040: b801 b7bd 9e4e 31bf 0976 15bf 1015 1bbf
00000050: 7f9e 1ebf dff4 8fbd 7571 83bf b60a 94be
00000060: 6420 36bf ba1c a2be 98c6 86bf 5761 abbd
00000070: 0cac 14bf 25b6 c9be d661 88be ccd0 24bf
00000080: c9e0 ffbe c27a 34bf f75f 46bf faa9 edbe
00000090: 2039 53bf 3617 a8be eefc 23bf 6755 06bf
000000a0: 13c9 38bf 3180 65be 051e 68bf fb1c 0fbf
000000b0: 4803 82bf dc1c f2be a713 d6be 1ef4 cfbe
000000c0: 1745 87be f0a9 65bf 40ed 00bf 316c 34bf
000000d0: 9f57 36bf 90cf 43bf c792 e1be 58a2 46bf
000000e0: 44c2 e9be 7b92 83bf 2650 2ebf 9ce7 b1bd
000000f0: 1128 09bf 8305 3cbf 2eb1 a6be d5ef 4ebf
-0.3483992 -0.89012957 -0.45494902 -0.8675094 -0.32842526 -0.92902756 -0.52582914 -0.80343336
-0.66302323 -0.33478275 -0.8643928 -0.7390143 -0.6618177 -0.46187255 -0.63337135 -0.07236713
-0.08935875 -0.69260585 -0.5838323 -0.60579014 -0.61960596 -0.07029127 -1.0268999 -0.28914422
-0.71143174 -0.31662542 -1.0529356 -0.083681755 -0.5807502 -0.39396778 -0.26637143 -0.643811
-0.49976185 -0.70499814 -0.7749018 -0.46418744 -0.8250904 -0.3283021 -0.64057815 -0.52474064
-0.72181815 -0.22412182 -0.90670806 -0.55903596 -1.0157251 -0.47287643 -0.4181187 -0.40615934
-0.264199 -0.8971243 -0.50362015 -0.70477587 -0.7122745 -0.7648859 -0.44057295 -0.77591467
-0.45656025 -1.0279077 -0.68091047 -0.08686754 -0.5357676 -0.7344591 -0.32557052 -0.80834705

7.odefunc.conv1.weight f4 [64, 64, 3, 3]
00000000: e2de 01ba 662b 01bd b3c1 7cbd b3f8 963d
00000010: 3dfd b6bb d1c6 8f3d cca7 2a3e bf49 6a3d
00000020: 9d6b 0a3d a97c d3bd faf2 373d 1134 44bc
00000030: af07 b7bd ba38 c63d 3a56 01bc 5e7d b4bd
00000040: 6f2c 443e bf66 c63d 9b87 c4bd ce06 d33d
00000050: 8c46 853d e83e 9fbd d253 5bbc bfed 903d
00000060: a112 d43c ca97 16bd 1e91 3b3d 21c5 f03d
00000070: 5276 89be 5559 7b3d 99ad 39be a864 36bd
00000080: 6211 603d c7ce a5bd 1f23 2c3d 14cb b13d
00000090: 8e13 adbd 92ae 52be a1d9 8dbd 256d 513d
000000a0: 7621 85bd 169f 013d 1a09 043d 964d 93b8
000000b0: 22a2 a93d fa1f e1bd 2abc b2bb 3bed b63e
000000c0: b27d fbbd cf88 5abd 1152 1a3d 46ca 3cbe
000000d0: 77d9 c9bd ce1c bc3c b7fa c2bd 58f4 8d3d
000000e0: f088 903e 4af4 08be 2aac b13e 60cb c13e
000000f0: 0f33 1fbe 0deb fd3d 3564 22bd e04f d53a
00000100: e6ba 8bbd 5495 08be ce73 58bd e7e5 3cbb
00000110: 219a bebd c450 5f3c 6759 b73d 026f b93d
00000120: 4973 43bd 264a 563e 522d 1e3e e9c9 98bd
00000130: f48a 273e 9b3b 1a3d 6b93 97bd 9f75 d53d
00000140: 3fda 033d bf66 75bd 87bc 98bd ab99 11bd
00000150: f442 213d 871a d3bd 0d4c e9bd 7a1e 053c
00000160: 42e1 143c d827 633d 4fed 47bd b89c b43c
00000170: 7ddd 713e da33 473d d1e3 953d 072b 8e3e
00000180: 85e4 b83c 5f79 a3bc 7abb 493c f2c9 39bd
00000190: 01ed 4fbd 06c9 16bd 2fee 54bc c3e9 8cbd
000001a0: 9945 333d c50d 14be 5d6e 44be 4102 26bd
000001b0: 5d2c a6bd b9b9 6ebd 69da 50bc 5263 84be
000001c0: c4cb 03be d5fc 713d 004d c0be c8c3 41be
000001d0: 0358 093e 77bf bdbd 38bd fbbc 3dcd 503d
000001e0: 909a e3bd f0d9 13bc 070e c5bd 34c3 28bd
000001f0: 603d 78bd fb61 b7bd 3371 5c3c 4e2d d0bd
00000200: 8df1 8f3c 4d8d ac3d f8c1 bdbd bb02 773c
00000210: 3582 a5bd 506d cbbd 4f99 523d 7635 8abd
00000220: 4f48 85bd c94f 263d db89 03be 104c 03be
00000230: 0d18 0cbd 4915 debd 5598 41bd 40ed 11bc
00000240: e2b9 6bbd d50f 0abd edb3 d7bd d459 bfbb
00000250: 5878 c2bc 00b8 9cbc f05f 03bc 0a06 c9bb
00000260: fb48 ed3c fd95 8b3c 6be9 c1bd 55b7 9bbd
00000270: 1601 9c3d 77ea e1bd 4292 51be f768 3a3d
00000280: 610c 0cbe 1db9 2abe 90c1 f6bc b439 54bd
00000290: 1366 e83d 7bdc a43e 0722 163e 6c29 6a3d
000002a0: c362 403e 078b 293e ff78 6bbd ec4a 353d
000002b0: 5282 a23b 5592 2e39 4517 183c 4c42 f3bd
000002c0: 7151 433d 9003 7e3e 85ad 33be 5bfd 48bc
000002d0: 4f5b 9fbc ab1a 683d 4cb3 643d 93e6 1cbd
000002e0: a137 243d bdcb 4d3c e026 00bd 6bb1 a73b
000002f0: 491e 663c 8e7f b23c 2481 77bd 6523 cdbc
00000300: 39a1 6fbc 8a6b 0cbd 275f 2ebd 9496 44bd
00000310: 6ed5 50bd 1e2b 893a 17cf 21bd 79f9 d2bd
00000320: 43ed d5bd 264b d53d 4a03 44be 15c7 abbd
00000330: de43 da3d 6a3f f7bd 5e19 69bd 4c7c 4dbd
00000340: 93fb 5cbe 3d87 8d3d 5a2e 373b 85cc bfbd
00000350: a543 9f3d a71b d73d a555 9d3c 25c9 2abd
00000360: aac0 8ebd 03b2 573d f063 da3d 11ef 00bd
00000370: b45b d4bc f06d fa3c 2179 d33c 9f07 f63c
00000380: c01d 6e3d c520 a03d fa93 b53d 53ed 4e3e
00000390: e4a3 f23d 4d62 0d3e d457 3c3e b084 3b3c
000003a0: 1a97 6ebc 268a f4bb d4d8 adbd 0352 73bd
000003b0: 67c8 0ebe 21ca b7bd a614 263c 741c 36be
000003c0: ecbf 28be f4c5 73bd eb81 12be a8b0 c4bd
000003d0: 956c 3d3e fa63 443e 5ce6 29be 1a04 d13d
000003e0: d040 f63c 45ca 273d 8caa 5e3d a252 613b
000003f0: df0a 723d 09e0 aa3d a7ee 55bd 93d1 08bc
-0.00049541716 -0.03153553 -0.061708163 0.07371654 -0.0055843876 0.07020343 0.16665572 0.057199236
0.033794034 -0.103265114 0.044909455 -0.011975304 -0.089370124 0.096787885 -0.007894093 -0.088129744
0.19157575 0.09687566 -0.09596177 0.10304032 0.065075964 -0.0777567 -0.013386684 0.070765965
0.02588779 -0.03676585 0.04579269 0.11756349 -0.26848084 0.06136449 -0.18132629 -0.044529587
0.054704078 -0.0809608 0.04202568 0.08681312 -0.084509954 -0.20574406 -0.06926275 0.05112948
-0.06500523 0.031645857 0.032235242 -7.023958e-05 0.082828775 -0.10992427 -0.00545456 0.35727867
-0.12279834 -0.053353127 0.03767592 -0.18436536 -0.09855931 0.022962954 -0.09520476 0.069313705
0.28229475 -0.13374439 0.34701663 0.37850475 -0.15546821 0.12398348 -0.039646346 0.0016274415
-0.068227574 -0.13338214 -0.052844815 -0.0028823556 -0.093067415 0.013630096 0.08952599 0.09054376
-0.047717366 0.20926723 0.15446976 -0.07460386 0.163616 0.0376545 -0.074011646 0.10422825
0.032190558 -0.05991244 -0.07457834 -0.03554694 0.039370492 -0.10307794 -0.11391459 0.008124942
0.009086909 0.05545792 -0.0488103 0.022047386 0.23619647 0.048633434 0.07318843 0.27767202
0.022569904 -0.019955335 0.012312764 -0.045358606 -0.050763134 -0.036812805 -0.0129962405 -0.06880524
0.043767545 -0.14458378 -0.19182725 -0.040529493 -0.081139304 -0.058282588 -0.012747386 -0.25857025
-0.12870699 0.05907901 -0.37558746 -0.18922341 0.1341248 -0.09265035 -0.030729875 0.05097698
-0.11113465 -0.009024128 -0.09621816 -0.041201785 -0.060605407 -0.08954235 0.013454723 -0.10164891
0.017571235 0.084253885 -0.09265512 0.015076335 -0.08081476 -0.09932959 0.051415738 -0.06748478
-0.065079324 0.040603433 -0.12845556 -0.12821984 -0.034202624 -0.108439036 -0.047264416 -0.008906662
-0.05755032 -0.033706505 -0.10532365 -0.005839566 -0.023739025 -0.019130707 -0.008018479 -0.006134753
0.028965464 0.017039293 -0.09468349 -0.07603327 0.076173946 -0.11031049 -0.20465949 0.04551026
-0.13676597 -0.16672178 -0.030121595 -0.051812842 0.11347594 0.32199463 0.14661418 0.05716841
0.18787675 0.16556941 -0.057488438 0.044260904 0.004959383 0.00016648446 0.009282892 -0.118778795
0.04768509 0.24806046 -0.17546661 -0.012267436 -0.019452719 0.056666058 0.055835053 -0.03830583
0.040092114 0.012560782 -0.031287074 0.0051175854 0.0140453065 0.021789338 -0.060425892 -0.025041291
-0.014625841 -0.034282245 -0.042571213 -0.047995165 -0.050984792 0.001046512 -0.039504137 -0.103014894
-0.10445645 0.10414724 -0.1914188 -0.08387581 0.10657476 -0.12072642 -0.056908958 -0.050167367
-0.21580343 0.0691056 0.0027951212 -0.09365181 0.07776574 0.10503321 0.019205878 -0.041695733
-0.069703415 0.05266 0.10663593 -0.03147799 -0.025922634 0.03057 0.025814595 0.03003293
0.05813384 0.0781875 0.08866115 0.2020772 0.11847666 0.1380703 0.18392879 0.011445209
-0.014562393 -0.0074627576 -0.08488622 -0.059404384 -0.13943635 -0.089741 0.010136759 -0.17784292
-0.16479462 -0.059514955 -0.14307372 -0.09604007 0.18498452 0.19178763 -0.16591781 0.102058604
0.030060202 0.040964384 0.054361865 0.0034381528 0.0590924 0.083435126 -0.05222955 -0.008350748

7.odefunc.conv1.bias f4 [64]
00000000: 7b83 6b3d 7007 823c 7fdd e13b 6521 83bd
00000010: 83a9 80bd 90d3 083e 1221 a8bc 4b4b 3cbd
00000020: d8ca d7bb 5b2a a13d 5b84 8abd c40b 073c
00000030: 37e1 b2bd ca43 ed3d 0d45 17bc 4ecc e83c
00000040: a6a3 00bd 473d 713d 453b a13c 4307 25bd
00000050: 7fa0 a73d 42c8 e9bd 3f31 9bbd 71f0 693d
00000060: 2f51 053c c6a3 5e3d 59a5 c0bc c096 cf3d
00000070: 8fde 69bd 965b 3a3d 1a09 dabc 9024 253c
00000080: b84f 9a3d b682 65bc f1b0 5ebd 2193 7d3d
00000090: 569c a9bd a1b8 013e 1f04 a6bc c703 a6bb
000000a0: 0cec 43bd 5273 d73b e4bd 053c 738b 693c
000000b0: a8b0 76bc c016 2bbc 089b dfbc f8ab c63c
000000c0: 2903 35bd 39df 3f3d 7a6f b7bd 4e98 8c3d
000000d0: 72fc 99bb 7cef 42bd 2a13 203d ed4a c8bc
000000e0: cffd 8f3c c865 c3bb c0f3 78bd 87d1 3c3d
000000f0: 8d6e 30bd 18fd 20bd 8b58 b13c 6dd4 b0bd
0.057498436 0.015872687 0.0068928595 -0.06402854 -0.06282332 0.13361955 -0.020523582 -0.045970242
-0.00658546 0.07869407 -0.06763526 0.008242551 -0.087343626 0.11585195 -0.009232772 0.028417733
-0.031406067 0.05889633 0.019681582 -0.04029013 0.08184909 -0.11415149 -0.07577752 0.05711407
0.008137031 0.054355405 -0.023516344 0.10136175 -0.057097014 0.0454975 -0.026615668 0.010079518
0.075347364 -0.014008215 -0.054367963 0.06190789 -0.08281772 0.12668087 -0.020265637 -0.0050663683
-0.047832534 0.0065750265 0.008162949 0.014254439 -0.015056767 -0.010442436 -0.027295604 0.024251923
-0.044192467 0.04684374 -0.08956809 0.06864987 -0.0046992833 -0.04759167 0.039080776 -0.02444979
0.01757708 -0.005963061 -0.060779333 0.04609826 -0.04307418 -0.03930387 0.021648666 -0.08634267

7.odefunc.norm2.weight f4 [64]
00000000: c5db 923f 8ca3 bd3f 6f4f 823f d668 a63f
00000010: 6f83 c23f b4aa 8f3f c4dd 2b3f f918 8b3f
00000020: f846 b03f a598 823f 0b7e ba3f 2e87 b93f
00000030: abd7 e03f cc7e 8d3f f076 a13f 0f0c d63f
00000040: ffd0 ac3f 6d36 a83f 80c2 a03f 7ee4 623f
00000050: 7b88 d63f 2b8e 823f c336 c33f 6d84 863f
00000060: 2909 a43f 83b9 a83f a1a9 7a3f 2a6d 063f
00000070: 314e c43f 1259 933f 3bfa b13f 8ace c63f
00000080: 06cc a23f 6a8d a63f f7d7 a63f af35 8f3f
00000090: e93e 9e3f 9992 de3f 4253 9f3f c2b3 bf3f
000000a0: 7878 b23f 1b8a d43f cb63 963f 7809 923f
000000b0: f4b2 8f3f d123 d63f c3be ac3f cdd9 7b3f
000000c0: 82fc 9d3f b616 823f 3125 be3f 3c9d c13f
000000d0: 3ea7 8d3f c5cd 923f 5a52 913f eca9 af3f
000000e0: ef25 b73f aa73 ab3f fce1 a03f f22e 9d3f
000000f0: 7835 7a3f a99c 2d3f 083a 813f f254 e63f
1.1473318 1.4815536 1.0180491 1.3000743 1.519636 1.122397 0.6713526 1.0866996
1.3771658 1.0202833 1.4569715 1.4494379 1.7565817 1.105432 1.2614422 1.672243
1.350128 1.314161 1.2559357 0.886299 1.67604 1.0199636 1.5251087 1.0509163
1.2815295 1.3181614 0.97915083 0.5251032 1.5336362 1.1511557 1.3904489 1.5531781
1.2718513 1.3011906 1.3034657 1.1188258 1.2362949 1.7388488 1.2447283 1.4976733
1.3943014 1.6604646 1.1749204 1.140914 1.1226487 1.672968 1.3495716 0.9837921
1.2342684 1.0163181 1.48551 1.5126109 1.1066663 1.1469046 1.1353257 1.3723731
1.4308451 1.3394673 1.2568965 1.2279952 0.97737837 0.6781717 1.0095835 1.7994673

7.odefunc.norm2.bias f4 [64]
00000000: 4155 90bf a006 32bf 9f2c 11bf 9f2d 1dbf
00000010: 7093 17bf ba3d 3fbf 82c6 38bf 0710 23bd
00000020: 4dcb b7be f58a 85bf ef2a fabe 77d5 78bf
00000030: 2948 f9bc bd2d 8cbf d783 95bf 2913 c8be
00000040: 60b4 bfbe f260 a2bf 0d9c 67bf 5007 29bf
00000050: b233 aebf d541 f1be 0a48 acbe eec8 68bf
00000060: 1613 9ebf adbb b3be b172 33bd e814 30bf
00000070: 5e71 f5be 07ea 42bf 2b11 4cbf 501e 9cbf
00000080: a95d 48bf 0903 36bf a34e b7be cb05 2abf
00000090: f4cd fdbe 6bb3 a9bf aa19 7bbf 4234 23bf
000000a0: 75f8 26bf 6f87 7dbf 2330 dabe 6711 38bf
000000b0: 3d54 31bf c7cf 6abf bbd4 e9be 31b4 4cbf
000000c0: 490c 3cbf 04d4 86be 62f4 51bf d0bb 8cbf
000000d0: ec3b 82bf b0b5 09bf e058 84bf 8309 f7be
000000e0: 37ed 81bf 8819 70bf a274 babe 2f0b 87bf
000000f0: 41bc bfbd 1f5b 50bf c39c 3fbf dc53 2dbf
-1.1276017 -0.6954136 -0.5670871 -0.6139774 -0.59209347 -0.7470356 -0.721779 -0.039810207
-0.35897294 -1.0433031 -0.4886088 -0.9720072 -0.030429916 -1.0951458 -1.1680859 -0.39077118
-0.37442303 -1.2685835 -0.9047249 -0.66026783 -1.3609526 -0.47120538 -0.3364871 -0.90931594
-1.2349575 -0.35104123 -0.04381055 -0.687819 -0.47938055 -0.7613835 -0.79713696 -1.2196751
-0.78267914 -0.7109838 -0.35802183 -0.6641509 -0.49571192 -1.3257879 -0.98086035 -0.63751614
-0.65222865 -0.9903478 -0.4261485 -0.71901554 -0.6926916 -0.91723293 -0.45670113 -0.7996245
-0.73456246 -0.2633363 -0.82013524 -1.0994816 -1.0174537 -0.5379286 -1.0339622 -0.48249444
-1.0150517 -0.9378896 -0.3641711 -1.0550288 -0.093620785 -0.8138904 -0.74848574 -0.67706084

7.odefunc.conv2.weight f4 [64, 64, 3, 3]
00000000: f7ee 723e 6274 8d3e 8b5b 243e 310c 033d
00000010: 846c 2b3d 807d dc3c e17b 45be b348 01be
00000020: 1e4a 1cbe b9fd c63d d31e 8a3d 0a66 003e
00000030: 3566 163d 2bce 143e 17ab 98bb b727 b7bd
00000040: 3a93 bcbd d961 debc f95b 1f3d fa7e 8739
00000050: dab8 c33d b35d babb 9a74 d4bb a95a 5d3c
00000060: 6443 0dbd c53b 883c d551 983c bab4 8bbe
00000070: 3088 26be db95 33be 0c5e 09be 4da1 0abe
00000080: 70dc 72bc 7dc2 24be dffa 5dbe ee0f 3bbe
00000090: 8127 e8bd b55f 41be 104b 51be f4c4 86bc
000000a0: 4766 c8bd 4dfd 72bc fb1a 1cbd 235c 89bd
000000b0: 7936 8abd 00d5 d63d b206 7f3d 2e2f 893d
000000c0: 563a 74bd b951 a63b eb75 8e3d 195a 31bd
000000d0: 07d5 8a3d 3f1c 94bc a3a5 053c 171c c23c
000000e0: c88c ff3c abc9 a83c a354 70bb 9d08 2bbd
000000f0: 76c4 453c 3f73 833c 1728 223d 387d 7d3d
00000100: 4c5f 6a3d a3a7 393d 5c02 c83b 116f c8bc
00000110: da59 1f3c 0d80 f43c 706f 05bb 3162 41bc
00000120: b550 793d 083f 333e 0b6b f03d edd5 6c3b
00000130: 54f3 753d 9b34 c9bc 8071 943c 558f 533c
00000140: 670a 39bc 24a1 57bd 082f c2bd a018 08be
00000150: 697a 1dbe a6d2 74be 06d5 0dbe 9812 6dbe
00000160: 33db 97be ce6e 28be 0348 0abe 4dc2 28be
00000170: 0fa6 0fbe ccc0 92be 8bce 67be 20b2 edbd
00000180: 132e 50be cfd3 ccbd 8642 c5bd 9942 963d
00000190: 4006 e53e 5344 673e 86d8 22be 6354 b63c
000001a0: f319 0ebe 358a 32be 3750 d6bd 353d 6cbe
000001b0: 8f15 4d3e e41d 4e3c 5251 223d 4eca 7e3e
000001c0: 42ba 2ebc 8988 733d 2cd0 333e 4d67 f03c
000001d0: ed87 c03d c1c3 eebc b38d 643d 6e40 d2bd
000001e0: 7ea1 6abc e7cd ee3d ec77 07bd 8698 ccbd
000001f0: 7a8f b23d 6978 4dbd bf44 aabd bfa0 3cbe
00000200: 9d25 0cbe f1aa 6fbd 4bc6 4abd 4b3f 87bd
00000210: 15dd 903d 8776 c53d fa34 f0bc 88f8 6dbd
00000220: 1e68 dabd 3256 46be 124a 0dbd cac1 48bd
00000230: 01bb 21bb 3b9b e8bc 206f 8bbd e4aa 17bd
00000240: 89c0 d4bd 0ec2 43bd 49c3 403d 1605 d0bd
00000250: 6dca bc3b 6a9e df3d 7d50 05bd 7f7f 39bd
00000260: a65e ac3a 0938 a63d 2d19 8cbd 1a92 66bd
00000270: 03c4 2e3c 61c2 83bc cdae 52bc 9789 99bc
00000280: db78 a03c 00da 893d 259c a43d 350b 7f3c
00000290: 4b91 d03b 645a cdbd 6b92 eebd 4225 ecbd
000002a0: 5bab 5abe 5ecd 24be 7fb5 b8bc fa4f 4bbd
000002b0: aaf2 67bd 8631 07bd e259 053d f6b0 903d
000002c0: a8cd a0bb 0a4f c03c 63eb 7a3d 6677 b13b
000002d0: 9372 c13c 6d7b 03bd d370 edbc 9d69 a53e
000002e0: ad97 883e 9bef 0c3e ea5e d63e 9244 993e
000002f0: c575 a53d 849e e33c aae7 4f3d d654 d73d
00000300: 9498 933c 9f68 1e3d c07b ad3d 5627 6cbc
00000310: 03fc 4cbd 1c21 82bc 0ccb 08bd a5f8 ce3c
00000320: d2ed b2bb c86b 64bc dc34 ee3c 9bfe b5bc
00000330: 16af d13b 4f58 7d3c 1ff6 2e3d 9dba 0d3d
00000340: 2413 06bd 0824 753c 677a bc3a e56c 8fbd
00000350: 32e1 eb3a c2c9 5d3c d5e3 98bd 80d6 aebd
00000360: 8cda 973d a829 083e f853 823e 1cbb 5fbc
00000370: a262 a73d 4cbc 473e 441e 01be 4343 bdbd
00000380: 15f1 9cbd f73c eebd 805e 923d 6f36 9d3d
00000390: f267 d0bd 8a13 e7bc 37d5 0e3b f111 9bbd
000003a0: 89e7 f2bd 2741 913c 2a08 a23c af73 9a3c
000003b0: 886f 22bd a6ce 243b 058f eabc fec0 b8bc
000003c0: d417 083d 1771 193c e084 3e3c a500 fd3b
000003d0: 653a 02bc 7d73 013d 26d9 483c 0e60 63bd
000003e0: b4f0 af3c 6e52 db3c 750b 92bc 6a98 083d
000003f0: f932 19be 4a05 183d 9dfe 563d e005 033d
0.2372397 0.27627856 0.16050546 0.03199405 0.041851535 0.026915312 -0.19285537 -0.12625389
-0.15262648 0.097163625 0.067441605 0.12538925 0.036718566 0.14531772 -0.0046590674 -0.08943122
-0.09207769 -0.027146267 0.03890607 0.0002584381 0.09556742 -0.0056874393 -0.0064836266 0.013510385
-0.034488097 0.016630063 0.018593708 -0.2728632 -0.16262889 -0.17537634 -0.13414782 -0.13538094
-0.014823064 -0.16089816 -0.21677731 -0.18267795 -0.1133566 -0.18884166 -0.2043879 -0.016451336
-0.09785133 -0.014830899 -0.038111668 -0.06707027 -0.06748671 0.10489845 0.062262245 0.06698452
-0.059625946 0.00507566 0.06956085 -0.043298814 0.06778913 -0.018079875 0.008157167 0.023695035
0.03119506 0.020603975 -0.0036671541 -0.04175626 0.012070766 0.016046165 0.039589014 0.061886996
0.05721979 0.045325886 0.006103797 -0.024467023 0.009726012 0.029846216 -0.0020360611 -0.011803196
0.060867984 0.17504513 0.11739167 0.0036138252 0.06004651 -0.024561217 0.018120527 0.012912591
-0.011293984 -0.05264391 -0.09481627 -0.13290644 -0.15378727 -0.23908481 -0.13850793 -0.23151624
-0.29659423 -0.16448519 -0.13504033 -0.1648037 -0.1402819 -0.28662717 -0.22637384 -0.1160624
-0.20330076 -0.10001337 -0.09631829 0.07336921 0.4473133 0.22584657 -0.1590291 0.022257036
-0.13877086 -0.17435534 -0.104645185 -0.23070224 0.20027755 0.012580369 0.039628334 0.2488186
-0.0106645245 0.059456382 0.1755988 0.029346133 0.09400926 -0.029146077 0.055799197 -0.10266195
-0.014320729 0.116603665 -0.03307335 -0.09990029 0.08718772 -0.05016366 -0.083138935 -0.18420695
-0.13686223 -0.05851263 -0.049505513 -0.06603869 0.07073418 0.09641748 -0.029322136 -0.058098346
-0.1066439 -0.19368818 -0.034494467 -0.049012937 -0.0024678113 -0.028394332 -0.06808305 -0.03702821
-0.10388286 -0.047792487 0.04706124 -0.1015722 0.0057614357 0.10918887 -0.032547463 -0.045287605
0.0013150766 0.081161566 -0.068407394 -0.056291677 0.01066685 -0.016083898 -0.012859059 -0.018742366
0.019588878 0.06731033 0.08037595 0.015566637 0.0063649765 -0.10027006 -0.11649021 -0.11530544
-0.2135443 -0.16093966 -0.022547482 -0.04963682 -0.056627907 -0.033006214 0.032556422 0.070650026
-0.0049073286 0.023475189 0.06125964 0.0054158447 0.023614204 -0.03210013 -0.028984463 0.3230714
0.2667822 0.13763277 0.4186929 0.29935127 0.080791034 0.027785547 0.05075804 0.10514228
0.01801709 0.038673993 0.08470869 -0.014413675 -0.050045025 -0.015884928 -0.033396766 0.025265047
-0.0054604793 -0.013941713 0.02907794 -0.022216132 0.0063990457 0.015462949 0.042715188 0.034601796
-0.032733098 0.014962204 0.001437974 -0.07003192 0.001799619 0.013536872 -0.074653305 -0.085370064
0.074147314 0.1329714 0.25454688 -0.01365545 0.081731096 0.19505423 -0.12609202 -0.09241345
-0.0766317 -0.11632722 0.07146931 0.07676398 -0.10176076 -0.02820756 0.0021794566 -0.075717814
-0.11860568 0.017731262 0.019779284 0.01885399 -0.039657146 0.0025147586 -0.02863265 -0.022552963
0.03322585 0.009365342 0.01162836 0.007721024 -0.007948493 0.03160428 0.0122588035 -0.055511527
0.02147708 0.026772704 -0.017827729 0.03334848 -0.14960851 0.03711442 0.052488912 0.031988025
